…
    "features": [
      "sexo",
      "edad",
      "grupo",
      "especialidad_medica",
      "subjetivo",
      "objetivo",
      "concatenada",
      "sexo_codificado",
      "grupo_codificado"
    ],
    "target_column": "grupo_codificado",
    "n_classes": 6,
    "original_hash": "05deb52767a543339ba651baf113e3e6",
    "processed_hash": "bab15416c50bc9dc09e2b48681cca820"
  },
  "model_summary": {
    "total_parameters": 177858054,
    "trainable_parameters": 177858054,
    "model_architecture": "BERTTextClassifier(\n  (bert): BertModel(\n    (embeddings): BertEmbeddings(\n      (word_embeddings): Embedding(119547, 768, padding_idx=0)\n      (position_embeddings): Embedding(512, 768)\n      (token_type_embeddings): Embedding(2, 768)\n      (LayerNorm): LayerNorm((768,), eps=1e-12, elementwise_affine=True)\n      (dropout): Dropout(p=0.1, inplace=False)\n    )\n    (encoder): BertEncoder(\n      (layer): ModuleList(\n        (0-11): 12 x BertLayer(\n          (attention): BertAttention(\n            (self): BertSdpaSelfAttention(\n              (query): Linear(in_features=768, out_features=768, bias=True)\n              (key): Linear(in_features=768, out_features=768, bias=True)\n              (value): Linear(in_features=768, out_features=768, bias=True)\n              (dropout): Dropout(p=0.1, inplace=False)\n            )\n            (output): BertSelfOutput(\n              (dense): Linear(in_features=768, out_features=768, bias=True)\n              (LayerNorm): LayerNorm((768,), eps=1e-12, elementwise_affine=True)\n              (dropout): Dropout(p=0.1, inplace=False)\n            )\n          )\n          (intermediate): BertIntermediate(\n            (dense): Linear(in_features=768, out_features=3072, bias=True)\n            (intermediate_act_fn): GELUActivation()\n          )\n          (output): BertOutput(\n            (dense): Linear(in_features=3072, out_features=768, bias=True)\n            (LayerNorm): LayerNorm((768,), eps=1e-12, elementwise_affine=True)\n            (dropout): Dropout(p=0.1, inplace=False)\n          )\n        )\n      )\n    )\n    (pooler): BertPooler(\n      (dense): Linear(in_features=768, out_features=768, bias=True)\n      (activation): Tanh()\n    )\n  )\n  (dropout): Dropout(p=0.3, inplace=False)\n  (linear): Linear(in_features=768, out_features=6, bias=True)\n)"
  },
  "final_metrics": {
    "accuracy": 0.503,
    "precision": 0.502982157717767,
    "recall": 0.503,
    "f1_score": 0.502302255730356
  }
}